…
n [9]: Copied! eles1 = list ( ds1 . take ( 10 ) . as_numpy_iterator ()) eles0 = list ( ds0 . take ( 10 ) . as_numpy_iterator ()) eles1 = list(ds1.take(10).as_numpy_iterator()) eles0 = list(ds0.take(10).as_numpy_iterator()) As expected, the new field 'signal' is now a 2D-array of fixed shape (3 channels and 12000 points): In [10]: Copied! for n , X in enumerate ( eles1 ): print ( n , f \"label= { X [ 'label' ] . decode () } , shape= { X [ 'signal' ] . shape } \" ) for n, X in enumerate(eles1): print(n, f\"label={X['label'].decode()}, shape={X['signal'].shape}\") 0 label=1c80dbfc87966d6e, shape=(3, 12000) 1 label=1c80dbfc87966d6e, shape=(3, 12000) 2 label=1c80dbfc87966d6e, shape=(3, 12000) 3 label=1c80dbfc87966d6e, shape=(3, 12000) 4 label=1c80dbfc87966d6e, shape=(3, 12000) 5 label=1c80dbfc87966d6e, shape=(3, 12000) 6 label=1c80dbfc87966d6e, shape=(3, 12000) 7 label=1c80dbfc87966d6e, shape=(3, 12000) 8 label=1c80dbfc87966d6e, shape=(3, 12000) 9 label=1c80dbfc87966d6e, shape=(3, 12000) The new label is an apparently random string. The property compactor.full_label_dict allows to find out the meaning of new labels. It can be seen that the label dc8bcb86c369e78b corresponds to the category FaultLocation=2 (2 for 'FanEnd'), FaultComponent='InnerRace' and FaultSize=0.021 . This property actually contains all possible labels that can be found
…
classifier') Params(n_channels=3, n_bands=64, n_frames=64, n_embedding=128, kernel_size=(7, 7), activation='relu', padding='same', pool_size=(2, 2), strides=(2, 2)) In [130]: Copied! model = autoencoder . CAES ( params ) # model.summary() model . encoder . summary () model . decoder . summary () model = autoencoder.CAES(params) # model.summary() model.encoder.summary() model.decoder.summary() Model: \"encoder\" _________________________________________________________________ Layer (type) Output Shape Param # ================================================================= conv1_enc (Conv2D) (None, 64, 64, 32) 4736 pool1_enc (MaxPooling2D) (None, 32, 32, 32) 0 conv2_enc (Conv2D) (None, 32, 32, 64) 100416 pool2_enc (MaxPooling2D) (None, 16, 16, 64) 0 flatten (Flatten) (None, 16384) 0 fc1_enc (Dense) (None, 128) 2097280 ================================================================= Total params: 2,202,432 Trainable params: 2,202,432 Non-trainable params: 0 _________________________________________________________________ Model: \"decoder\" _________________________________________________________________ Layer (type) Output Shape Param # ================================================================= fc1_dec (Dense) (None, 16384) 2113536 reshape (Reshape) (None, 16, 16, 64) 0 ups2_dec (UpSampling2D) (None, 32, 32, 64) 0 tconv2_dec (Conv2DTranspose (None, 32, 32, 32) 100384 ) ups1_dec (UpSampling2D) (None, 64, 64, 32) 0 tconv1_dec (Conv2DTranspose (None, 64, 64, 3) 4707 ) ================================================================= Total params: 2,218,627 Trainable params: 2,218,627 Non-trainable params: 0 _________________________________________________________________ In [131]: Copied! model . compile ( optimizer = tf . keras . optimizers . Adam (), loss = tf . keras . losses . MeanSquaredError (), # metrics=['accuracy'], ) model.compile( optimizer=tf.ke
…
from dpmhm.models.ul import autoencoder input_shape = ele[0].shape # n_classes = len(labels)+1 # must add one for the outlier class, Keras uses zero-based class labels. # print(n_classes, input_shape) config = autoencoder.Config(input_shape=input_shape) # configuration for AE model = autoencoder.CAES(config) # build an AE model # model.summary() model.encoder.summary() model.decoder.summary() Model: \"encoder\" _________________________________________________________________ Layer (type) Output Shape Param # ================================================================= conv1_enc (Conv2D) (None, 256, 80, 32) 896 pool1_enc (MaxPooling2D) (None, 128, 40, 32) 0 bn1_enc (BatchNormalization (None, 128, 40, 32) 128 ) conv2_enc (Conv2D) (None, 128, 40, 64) 18496 pool2_enc (MaxPooling2D) (None, 64, 20, 64) 0 bn2_enc (BatchNormalization (None, 64, 20, 64) 256 ) conv3_enc (Conv2D) (None, 64, 20, 128) 73856 pool3_enc (MaxPooling2D) (None, 32, 10, 128) 0 bn3_enc (BatchNormalization (None, 32, 10, 128) 512 ) flatten (Flatten) (None, 40960) 0 fc1_enc (Dense) (None, 128) 5243008 ================================================================= Total params: 5,337,152 Trainable params: 5,336,704 Non-trainable params: 448 _________________________________________________________________ Model: \"decoder\" _________________________________________________________________ Layer (type) Output Shape Param # ================================================================= fc1_dec (Dense) (None, 40960) 5283840 reshape (Reshape) (None, 32, 10, 128) 0 bn3_dec (BatchNormalization (None, 32, 10, 128) 512 ) ups3_dec (UpSampling2D) (None, 64, 20, 128) 0 tconv3_dec (Conv2DTranspose (None, 64, 20, 64) 73792 ) bn2_dec (BatchNormalization (None, 64, 20, 64) 256 ) ups2_dec (UpSampling2D) (None, 128, 40, 64) 0 tconv2_dec (Conv2DTranspose (None, 128, 40, 32) 18464 ) bn1_dec (BatchNormalization (None, 128, 40, 32) 128 ) ups1_dec (UpSampling2D) (None, 256, 80, 32) 0 tconv1_dec (Conv2DTranspose (None, 256, 80, 3) 867 ) ================================================================= Total params: 5,377,859 Trainable params: 5,377,411 Non-trainable params: 448 _________________________________________________________________ In [14]: Copied! model . compile ( optimizer = tf . keras . optimizers . Adam (), loss = tf . keras . losses . MeanSquaredError (), # metrics=['accuracy'], ) model.compile( optimizer=tf.k
…
, n_embedding=128, n_classes=n_classes, padding='same', activation='relu',) model = vggish.VGG11(config) print(config) model.summary() # l=model.get_layer('classifier') Config(input_shape=(257, 64, 3), batch_size=256, epochs=100, training_steps=1000, n_classes=30, n_embedding=128, kernel_size=(3, 3), activation='relu', activation_classifier=None, padding='same', pool_size=(2, 2), strides=(2, 2)) Model: \"VGGish-A\" _________________________________________________________________ Layer (type) Output Shape Param # ================================================================= conv1 (Conv2D) (None, 257, 64, 64) 1792 pool1 (MaxPooling2D) (None, 128, 32, 64) 0 conv2 (Conv2D) (None, 128, 32, 128) 73856 pool2 (MaxPooling2D) (None, 64, 16, 128) 0 conv3_1 (Conv2D) (None, 64, 16, 256) 295168 conv3_2 (Conv2D) (None, 64, 16, 256) 590080 pool3 (MaxPooling2D) (None, 32, 8, 256) 0 conv4_1 (Conv2D) (None, 32, 8, 512) 1180160 conv4_2 (Conv2D) (None, 32, 8, 512) 2359808 pool4 (MaxPooling2D) (None, 16, 4, 512) 0 conv5_1 (Conv2D) (None, 16, 4, 512) 2359808 conv5_2 (Conv2D) (None, 16, 4, 512) 2359808 pool5 (MaxPooling2D) (None, 8, 2, 512) 0 flatten (Flatten) (None, 8192) 0 fc1_1 (Dense) (None, 4096) 33558528 fc1_2 (Dense) (None, 4096) 16781312 embedding (Dense) (None, 128) 524416 classifier (Dense) (None, 30) 3870 ================================================================= Total params: 60,088,606 Trainable params: 60,088,606 Non-trainable params: 0 _________________________________________________________________ In [25]: Copied! from_logits = 'softmax' not in str ( model . get_layer ( 'classifier' ) . activation ) model . compile ( optimizer = tf . keras . optimizers . Adam (), loss = tf . keras . 
…
